このファイルは、ネットワーク構造を変化させます
finish
used Radam and learning schedular(stepLR)
Net(
  (conv_layers): ModuleList(
    (0): ComplexConv2d(
      (conv_real): Conv2d(1, 8, kernel_size=(2, 2), stride=(1, 1), padding_mode=circular)
      (conv_imag): Conv2d(1, 8, kernel_size=(2, 2), stride=(1, 1), padding_mode=circular)
    )
    (1): ComplexConv2d(
      (conv_real): Conv2d(8, 8, kernel_size=(2, 2), stride=(1, 1), padding_mode=circular)
      (conv_imag): Conv2d(8, 8, kernel_size=(2, 2), stride=(1, 1), padding_mode=circular)
    )
  )
  (fc): ComplexLinear(
    (linear_real): Linear(in_features=32, out_features=1, bias=False)
    (linear_imag): Linear(in_features=32, out_features=1, bias=False)
  )
  (crelu): ComplexReLU()
  (iniact): initialactivation()
  (subact): Subseqactivation()
)
original U:10
to U,-t,delta,NSAMPLE 1 -1 0.001 1024
site : 2
seed: 15
use sr
0.0 -11.664124 0.27490854263305664 -0.00032120246889320414
0.001 -11.986395 0.2912569046020508 -7.793910330246944e-05
このファイルは、ネットワーク構造を変化させます
finish
used Radam and learning schedular(stepLR)
Net(
  (conv_layers): ModuleList(
    (0): ComplexConv2d(
      (conv_real): Conv2d(1, 8, kernel_size=(2, 2), stride=(1, 1), padding_mode=circular)
      (conv_imag): Conv2d(1, 8, kernel_size=(2, 2), stride=(1, 1), padding_mode=circular)
    )
    (1): ComplexConv2d(
      (conv_real): Conv2d(8, 8, kernel_size=(2, 2), stride=(1, 1), padding_mode=circular)
      (conv_imag): Conv2d(8, 8, kernel_size=(2, 2), stride=(1, 1), padding_mode=circular)
    )
  )
  (fc): ComplexLinear(
    (linear_real): Linear(in_features=32, out_features=1, bias=False)
    (linear_imag): Linear(in_features=32, out_features=1, bias=False)
  )
  (crelu): ComplexReLU()
  (iniact): initialactivation()
  (subact): Subseqactivation()
)
original U:10
to U,-t,delta,NSAMPLE 1 -1 0.001 1024
site : 2
seed: 10
use sr
… al): Conv2d(1, 8, kernel_size=(2, 2), stride=(1, 1), padding_mode=circular)
      (conv_imag): Conv2d(1, 8, kernel_size=(2, 2), stride=(1, 1), padding_mode=circular)
    )
    (1): ComplexConv2d(
      (conv_real): Conv2d(8, 8, kernel_size=(2, 2), stride=(1, 1), padding_mode=circular)
      (conv_imag): Conv2d(8, 8, kernel_size=(2, 2), stride=(1, 1), padding_mode=circular)
    )
  )
  (fc): ComplexLinear(
    (linear_real): Linear(in_features=32, out_features=1, bias=False)
    (linear_imag): Linear(in_features=32, out_features=1, bias=False)
  )
  (crelu): ComplexReLU()
  (iniact): initialactivation()
  (subact): Subseqactivation()
)
original U:10
to U,-t,delta,NSAMPLE 1 -1 0.001 1024
site : 2
seed: 1
use sr
… このファイルは、ネットワーク構造を変化させます
finish
used Adam and learning schedular(stepLR)
Net(
  (conv_layers): ModuleList(
    (0): ComplexConv2d(
      (conv_real): Conv2d(1, 8, kernel_size=(2, 2), stride=(1, 1), padding_mode=circular)
      (conv_imag): Conv2d(1, 8, kernel_size=(2, 2), stride=(1, 1), padding_mode=circular)
    )
    (1): ComplexConv2d(
      (conv_real): Conv2d(8, 8, kernel_size=(2, 2), stride=(1, 1), padding_mode=circular)
      (conv_imag): Conv2d(8, 8, kernel_size=(2, 2), stride=(1, 1), padding_mode=circular)
    )
  )
  (fc): ComplexLinear(
    (linear_real): Linear(in_features=32, out_features=1, bias=False)
    (linear_imag): Linear(in_features=32, out_features=1, bias=False)
  )
  (crelu): ComplexReLU()
  (iniact): initialactivation()
  (subact): Subseqactivation()
)
original U:10
to U,-t,delta,NSAMPLE 1 -1 0.001 1024
site : 2
seed: 10
use sr
… 